model_edgetpu.tflite (tflite, 219108 bytes, 16 tensors)

sequential/dense_1/BiasAdd/ReadVariableOp/resource f4 [18]
000000 78 77 81 3d ae a4 37 bd 3d e9 79 bd fd b7 91 bd
       0.06321615 -0.044834785 -0.06101345 -0.07115171
000010 44 37 7a bd fb 46 69 bd 4b 08 5a bd e2 16 12 bd
       -0.06108786 -0.056952458 -0.053230565 -0.035666354
000020 26 f9 9f 3d 6d 2f 8b bd 4e ae 18 bd a0 51 9d bd
       0.07811193 -0.06796155 -0.037275605 -0.07681584
000030 d1 f5 5e bd 6c 20 71 bd 37 bf 8e bd 4c 82 17 bd
       -0.054433648 -0.05886881 -0.06970065 -0.036989495
000040 6f cf 67 bd 09 21 a1 bd
       -0.05659431 -0.07867629

sequential/dense/BiasAdd/ReadVariableOp/resource f4 [32]
000000 95 b8 2f bd f0 80 6a bd e9 c2 51 bd 56 09 b4 3c
       -0.04290064 -0.05725187 -0.05121127 0.021977108
000010 a8 ae 1a 3d 1b ec 5c bd 08 6f 55 bd cd fb 46 bd
       0.03776422 -0.053936105 -0.05210784 -0.04857998
000020 75 1e 88 bd 62 2d 6a bd 63 f8 2f bd 8e 2f 93 bd
       -0.06646434 -0.057172187 -0.04296149 -0.07186805
000030 e9 df 6b bc e7 66 7f 3d 2d d0 6b bd 9b f9 38 3c
       -0.014396646 0.062353995 -0.05757158 0.011289979
000040 6c 68 7c 3d a1 9d 6b 3d 51 2e 85 3d bf 12 33 3d
       0.061623022 0.057523374 0.06502975 0.04371905
000050 3c 7d 19 bd 64 e6 f9 3c 6c ff 70 3d bd 72 5c bd
       -0.03747295 0.030505367 0.05883734 -0.05382036
000060 88 f6 58 3d ab 99 f5 bc 96 91 3f bd b3 3e 0a 3b
       0.052969486 -0.029980501 -0.0467697 0.00210945
000070 d4 48 64 3d 05 64 1f bd f6 6a 89 3d ba cd 45 bd
       0.055733517 -0.038913745 0.06709854 -0.0482919

sequential/conv1d_5/BiasAdd/ReadVariableOp/resource f4 [32]
000000 d6 7f 22 bd 9e c5 2c bd 67 7e 97 bc 59 ab 17 3d
       -0.039672695 -0.04218065 -0.01849289 0.037028644
000010 69 f1 d7 3c 0e bc 0f bd 80 4b 4f 3d c5 f6 4d 3d
       0.02636023 -0.035091452 0.05060911 0.050284166
000020 d9 a5 bb 3c 96 ae c8 bc f2 04 6c bd a5 3d ed 3b
       0.02290623 -0.024497312 -0.057621904 0.0072400146
000030 e4 52 3d bd 6c de 2a bd fa f0 9b 3a af 04 0f 3c
       -0.04622163 -0.041716024 0.0011897378 0.008729144
000040 62 e9 22 bd b9 ac 0a 3d 49 b7 51 3c 04 4f ca 3c
       -0.039773352 0.033856127 0.012800046 0.02469588
000050 17 2d 0e bd 75 92 24 3d d9 01 d5 3c b5 a6 6d bd
       -0.03471097 0.040178735 0.026001858 -0.058020312
000060 9e c5 35 bc af 04 e2 bc 78 36 80 bc 45 cb 1d 3d
       -0.011094479 -0.027590124 -0.015650973 0.03852393
000070 04 d6 62 3d 4f b3 90 bc 1e 6b 5b 3d a3 13 71 bc
       0.055379882 -0.017663626 0.05356895 -0.014714154

sequential/conv1d_4/BiasAdd/ReadVariableOp/resource f4 [32]
000000 11 00 08 3d 55 ea 7c 3c f2 11 90 bc 5d 8e 0e 3d
       0.03320319 0.0154367285 -0.017586682 0.034803737
000010 75 4e 9d 3c 88 d6 7e 3d 0d be 42 3b d3 c6 74 3b
       0.01920245 0.06221631 0.002971533 0.0037349954
000020 fa 89 81 3c f6 b5 0b bc 49 9e 54 3d 60 fa 8b bc
       0.015812863 -0.00852727 0.051908765 -0.017087162
000030 d0 52 30 bd fd 49 a9 bc 1a d7 5a bd 02 b3 dd 3b
       -0.043047726 -0.020665163 -0.053427793 0.006765724
000040 a8 19 11 bd 02 04 7d 3c 35 23 5f 3d 3d a8 02 bd
       -0.03542486 0.01544285 0.054476935 -0.031898726
000050 ce 4f cf bc ac a8 ca 3c 96 e5 be 3c 53 2c 84 3c
       -0.025306609 0.024738632 0.023302834 0.016134417
000060 fa 01 43 bd ed 3b 41 3d b0 57 0b bd 6d 82 da bc
       -0.047609307 0.04717629 -0.034019172 -0.02667352
000070 8f f1 6c 3d 1e 5d 44 bc 17 3b 48 3d 3b a2 cd bc
       0.057847556 -0.0119850915 0.048884477 -0.025101772

sequential/conv1d_3/BiasAdd/ReadVariableOp/resource f4 [32]
000000 6b 06 16 3d 42 14 50 bc b0 23 3a 3d 2d 43 bb bc
       0.036627214 -0.012700142 0.04544419 -0.02285918
000010 24 88 de 3c a4 52 df ba ad 87 b5 bc 52 13 31 3c
       0.027164526 -0.0017038179 -0.022159422 0.010807829
000020 85 ef 3a 3d f6 79 1d 3c 18 77 9f 3c 50 cd 0a 3d
       0.04563858 0.009611597 0.019465968 0.033887208
000030 3f 1c c4 bc 0c 68 0d ba e8 fd 83 bb 51 2a 11 3d
       -0.02393925 -0.00053942273 -0.0040280707 0.035440747
000040 ec 05 13 3d 4c d6 13 ba d2 de a8 bc cf 0e 58 3b
       0.03589432 -0.00056395377 -0.020614062 0.003296781
000050 e2 e5 2e bd 5d 15 d0 bc a0 fe ac 39 3a aa 06 bd
       -0.042699702 -0.025400812 0.00032996107 -0.032877184
000060 3e 85 51 3d 75 24 31 3d bb 82 df 3c a6 fe 58 3d
       0.05115246 0.04324766 0.027284017 0.052977227
000070 37 4f e1 bb 73 1d 03 3c 45 ef e6 bc fa 62 00 bd
       -0.006875898 0.008002627 -0.028190264 -0.03134439

sequential/conv1d_2/BiasAdd/ReadVariableOp/resource f4 [32]
000000 ff f9 9b bc c5 01 09 bd 74 95 94 bc b5 f5 16 3d
       -0.019040106 -0.033448953 -0.018137671 0.03685542
000010 ad 8d e4 3c 04 43 58 bd d2 47 24 bd d3 3d 50 bd
       0.027899588 -0.052798286 -0.040107556 -0.05084021
000020 31 f7 d4 3c 65 7a b1 3c ab 30 14 bd 25 5f 94 bb
       0.025996776 0.021664808 -0.036179226 -0.0045279437
000030 63 96 12 bd 3b 7e 1b 3d b4 dc 7b bc b8 4d 50 3d
       -0.03578795 0.03796218 -0.015372444 0.05085537
000040 24 6f 33 bc c3 93 06 3d 18 09 17 3d b1 54 01 bd
       -0.010951791 0.03285576 0.036873907 -0.03157491
000050 dc 09 2c 3d 5d b7 ba 3c 68 4f 5a 3b 5f 23 34 3c
       0.04200159 0.022792513 0.003331149 0.010994761
000060 77 c5 31 3d 8a 28 e7 bc 2f 3e e3 3a ed bb bf bc
       0.043401208 -0.028217573 0.0017337258 -0.02340504
000070 e1 46 9e bc 65 e6 b8 3c e7 f0 9a 3c bf 62 84 3c
       -0.019320907 0.022570798 0.0189137 0.016160367

sequential/conv1d_1/BiasAdd/ReadVariableOp/resource f4 [32]
000000 4b 81 3b bd 7e b2 07 3c b0 11 87 bc 41 f2 13 ba
       -0.0457776 0.008282302 -0.016487926 -0.00056437036
000010 ff b1 05 bc 6e 73 35 bd 56 5d 13 bd c6 4f be bc
       -0.008160113 -0.044299535 -0.035977684 -0.023231398
000020 19 91 5e bc 4c fc ca bc 89 82 06 bd d0 ac 11 3d
       -0.013584399 -0.024778508 -0.03283933 0.035565197
000030 6e 03 0c bd c2 6b aa 3b 53 a7 01 bd f0 81 5d bc
       -0.03418296 0.005200834 -0.031653713 -0.013519749
000040 b2 5a f8 3c e7 57 c8 bc 15 2c 21 bd 9d a9 65 3c
       0.030316684 -0.024455978 -0.03934868 0.01401749
000050 ec 86 4b bc 33 ca f4 bb b3 6f 30 bd 09 57 f3 bc
       -0.012422305 -0.007470393 -0.043075275 -0.029704588
000060 9f 77 f0 bc e1 38 e6 bc a6 24 35 bd e0 ba f3 3b
       -0.029353915 -0.028103294 -0.044224404 0.0074380487
000070 a8 97 c7 3b 1c 14 13 bd a6 48 ee bc 6f 63 d3 3c
       0.006091077 -0.03590785 -0.029087376 0.02580425

sequential/conv1d/BiasAdd/ReadVariableOp/resource f4 [64]
000000 7b ab 49 3c ab 46 54 bb ba 46 bc 3c 9d e2 1f bc
       0.012308951 -0.0032390754 0.022982944 -0.009758619
000010 3a 5e b4 bc f5 5b 10 bc 87 cd 22 bd eb 78 a7 bc
       -0.022017587 -0.008810987 -0.039746787 -0.0204434
000020 6f 8f fd 3c 9c 31 47 bd 01 67 98 3c a6 a7 9d bb
       0.030952184 -0.048631296 0.018603804 -0.004811245
000030 5a 3e b5 bc f6 10 d8 bc 94 12 a9 3c cc 77 53 bc
       -0.022124458 -0.026375275 0.020638742 -0.01290698
000040 79 09 ae bb f5 67 0d 3d 5a 9d 10 bd be 72 2b 3d
       -0.005311188 0.03452297 -0.035306312 0.041857474
000050 cf f5 35 bd f1 04 cb bc 15 a9 b3 3c b3 41 76 3b
       -0.044423874 -0.02478263 0.02193121 0.003757578
000060 0d db ed bc 51 33 34 3c 12 66 1a 3d 9f 97 3a bc
       -0.029035116 0.010998563 0.037694998 -0.011388688
000070 6a 50 36 bd 40 cd 11 3d 0f 91 d8 bb 46 ca eb bc
       -0.044510283 0.035596132 -0.006609089 -0.028782975
000080 6b b4 58 bc 76 62 bb 3b a6 cb 8f bc f2 f9 cc 3c
       -0.013226609 0.0057185246 -0.017553162 0.025021527
000090 93 37 92 3c be 6e 3c ba 07 06 55 3d b1 6a d5 3c
       0.017848765 -0.0007188133 0.0520077 0.026051851
0000a0 a1 0f a8 bc c2 6e 04 bd 40 ab 0e 3d 86 ff 2a 3b
       -0.020515265 -0.03233219 0.034831285 0.0026092245
0000b0 6a 49 69 3a 30 86 92 ba 66 5c f8 bc 2d 2d fe bc
       0.0008899184 -0.0011178907 -0.030317497 -0.0310274
0000c0 0a 91 0e ba 8d 70 f6 bc 6a f3 05 bd 9a 0f d4 bc
       -0.00054384826 -0.030082965 -0.03270284 -0.025886346
0000d0 a1 28 0f bc 0f c6 6a bc e0 26 9c bc e2 2e f0 bb
       -0.008737714 -0.014329447 -0.019061506 -0.0073298076
0000e0 1b dc f5 3c 7a f0 78 bc 6b a4 b1 bc 83 c6 3c bc
       0.030012181 -0.015194053 -0.021684846 -0.011521938
0000f0 75 bb 1e bd b7 6b 78 bd 46 db d7 3c 47 e3 94 bb
       -0.03875299 -0.0606496 0.026349675 -0.004543695

sequential/dense/MatMul f4 [32, 384]
000000 90 94 3d 3d 24 b2 00 3e 59 b7 11 bc 1e 57 4d bd
       0.04628426 0.12567955 -0.008893811 -0.05013191
000010 89 3f 3b bd 13 1f 31 3d d1 29 c6 bc f9 d4 34 bd
       -0.04571489 0.043242525 -0.024189861 -0.04414842
000020 c0 fe 95 bc 42 fa c8 bd 11 90 99 bd dc 0a bd bd
       -0.01830995 -0.09813358 -0.074981816 -0.09230587
000030 07 e6 25 3d ce 2f 83 3d eb 01 54 bc 60 89 2a 3d
       0.040502574 0.064056024 -0.01293991 0.041634917
000040 30 ac 75 3b 9c c6 ca 3d 7c d1 d3 bd 05 bf a2 3d
       0.0037486665 0.09901163 -0.1034269 0.0794659
000050 58 78 3d 3d 25 70 aa bd 2f 00 68 bd 32 16 99 bd
       0.046257347 -0.08322171 -0.0566408 -0.074749365
000060 80 d1 01 3d e1 e9 80 3d 9d ba c8 bd 0f 35 ad bd
       0.031693935 0.06294609 -0.09801219 -0.08457386
000070 04 87 9b bd fd cc b2 bd 5e 76 9c bb ca be 75 bb
       -0.075941116 -0.08730505 -0.0047748527 -0.0037497752
000080 f4 a7 9c 3d 26 d0 1a bd a1 91 c7 bd 33 dd 05 be
       0.07649222 -0.037796162 -0.097445734 -0.13072662
000090 90 3e 55 bd 38 20 d4 3d 0a b6 50 3d f5 55 3f 3d
       -0.052061617 0.10357708 0.050954856 0.046712834
0000a0 da 0f fe bd cc f1 97 3d 03 eb f5 3d 07 5e b1 3d
       -0.12405367 0.07419166 0.120077156 0.086605124
0000b0 33 07 85 3d af 3a 5e bd cb e6 92 3d 2d 8a b5 3d
       0.06495514 -0.054255184 0.071729265 0.088642456
0000c0 5f 59 09 bc 25 cb bb 3d 4b eb e7 3d cd ad 9a 3d
       -0.008383124 0.09169606 0.113241754 0.07552681
0000d0 0c 64 1f bd 92 81 0c be 5a 9f 03 bc c0 49 57 bd
       -0.03891377 -0.13721302 -0.008033598 -0.052560568
0000e0 0e 20 0e be 13 1e b3 bd 1d bd 04 be d5 3d 2b 3d
       -0.13879415 -0.087459706 -0.12962766 0.041807014
0000f0 49 33 bd 3d d6 d2 22 bc dc b9 92 3d 3a 09 b7 bc
       0.092382975 -0.0099379625 0.07164356 -0.022343267
000100 84 3b 93 3d c8 ea a3 bd af 0a b1 3b 57 19 88 3c
       0.07189086 -0.08003765 0.005402885 0.016613645
000110 25 97 35 3d a8 db a1 3d 86 ba 10 3d 97 81 06 be
       0.044333596 0.07903224 0.035334133 -0.13135372
000120 ae 32 29 3d b4 c3 b4 bd 4d 74 ab bd 0f 38 05 bd
       0.041308098 -0.0882639 -0.08371792 -0.032524165
000130 d0 a8 9a ba 4e a0 9a bc e2 d4 66 bc f6 1f 32 bd
       -0.0011799578 -0.018875267 -0.014088841 -0.04348751
000140 50 d4 94 3d e0 2e a4 3d d6 c8 9e 3d 96 34 99 bb
       0.07267058 0.08016753 0.0775315 -0.004675458
000150 66 6c 83 3d 95 e6 f0 bc 87 78 f7 bc 67 c5 b3 bd
       0.0641716 -0.029406825 -0.03020884 -0.08777886
000160 a0 e2 df bc 68 2f a8 3d f2 80 44 3d f4 cf 63 bd
       -0.027329743 0.08212167 0.047974534 -0.05561824
000170 9e b3 43 bb 40 c8 f7 bc 98 50 60 3d be a9 7f 3c
       -0.00298617 -0.030246854 0.05476436 0.015604435
000180 26 0b cd 3d b2 d0 f5 bd d4 69 c1 3d fc 78 8a 3d
       0.10011892 -0.12002696 0.09444013 0.06761357
000190 4a ae 4d 3d 58 6a 36 3d 1c 05 bf 3d c7 35 35 bd
       0.050215043 0.04453501 0.093271464 -0.04424074
0001a0 74 5c 8e bd c5 8e b3 3d 57 cb 16 3d 9d 7d 2c 3d
       -0.06951228 0.087674655 0.036815014 0.04211198
0001b0 10 c1 33 bd 04 b7 57 3c a5 06 1c 3c aa 8c 08 bb
       -0.04388529 0.013166193 0.009523069 -0.0020835795
0001c0 f8 66 e6 bc 55 99 97 bd f8 6b 5a bd 8a bf f6 3c
       -0.028125271 -0.07402293 -0.053325623 0.03012063
0001d0 c8 28 99 3d 44 7d 15 3d d2 ef fc bd c3 ab db 3d
       0.074784815 0.036496416 -0.123504296 0.1072612
0001e0 d4 fa ad 3d d0 30 da ba b8 ec 50 bd f7 d6 6f 3d
       0.08495107 -0.0016646627 -0.051007003 0.058554616
0001f0 45 5a cc bc fe f8 e0 bb cc e7 97 3d 5d e1 88 bd
       -0.024945388 -0.0068656197 0.074172586 -0.0668361
000200 d5 bd 20 bd b4 19 68 3d 11 53 47 3d 48 1c 9c bd
       -0.039243538 0.056665137 0.048663203 -0.07622582
000210 e6 cf 8b bd 41 e5 b6 bc 19 f1 cc bd 51 b8 2d 3d
       -0.06826763 -0.022326114 -0.10006923 0.042412106
000220 56 0b d3 bd 83 32 d1 bc 2f 8a 3b 3d c1 12 92 bd
       -0.103048965 -0.025536781 0.04578608 -0.07132483
000230 c6 eb 21 3d b8 3f e1 bd 2c 80 82 3c 3c 80 f8 3d
       0.03953149 -0.109984815 0.015930258 0.12133834
000240 3c 2d 50 3d 1c 97 06 be b2 f1 d1 bd b3 54 95 3d
       0.05082439 -0.13143581 -0.10251178 0.07291546
000250 5e ed 61 bb fc 1e 92 bc d7 27 96 3d c4 7f 00 3e
       -0.0034473757 -0.01783704 0.073318176 0.12548739
000260 3c 93 92 3d ee b9 a0 3d 35 84 fe b9 02 00 c4 3b
       0.07156989 0.07847963 -0.00048545157 0.0059814462
000270 23 e0 87 3d 37 50 84 bd 06 5d 73 bc 5c f3 fb 3d
       0.066345476 -0.06460612 -0.0148537215 0.123022765
000280 2d 78 d6 bd f7 e7 03 3e 03 5a 35 3d e5 7c 4f bc
       -0.104721405 0.12881456 0.044275295 -0.0126640545
000290 41 22 60 bd ab 76 e6 bc ca 0e e3 3c 0c 96 b2 bc
       -0.054720167 -0.028132757 0.027717013 -0.021800064
0002a0 ef 67 8d bc c1 3f ed 3c fe 59 02 3e 9d 2f 75 bc
       -0.017261473 0.028961064 0.12729642 -0.014964965
0002b0 a4 a2 ab 3d c0 19 05 3e 20 09 ba bd 58 ae 20 bd
       0.083806306 0.12998104 -0.09083772 -0.039228767
0002c0 60 4a 99 3d 05 ae e8 bd a8 14 02 bd af b2 0f be
       0.07484889 -0.113613166 -0.03175798 -0.14033006
0002d0 cd 63 d1 3d 8f a2 5f bd 07 fa e0 bd 9f fd 11 3e
       0.102241136 -0.054598387 -0.10985189 0.14256905
0002e0 c9 16 19 be c9 5f ea bd d9 3c 04 3d 4e 67 10 be
       -0.14950098 -0.11444051 0.03228459 -0.14101908
0002f0 39 dc 27 bd 8c 85 98 3d 8d a1 b4 bc 9d 8f 14 3e
       -0.040981505 0.07447347 -0.02204969 0.14507909
000300 bd ee 23 3c 1f e8 d5 3c b3 55 71 bd 89 cb ef 3c
       0.01000565 0.02611166 -0.05891962 0.029271858
000310 3c f7 5a 3d b2 52 29 3d ac 62 d8 bd b8 47 9d bd
       0.053458437 0.04133863 -0.10565695 -0.07679695
000320 cb 02 17 be e6 47 ea bc 5b 01 28 3d 2d f3 b2 bd
       -0.14747159 -0.028598737 0.041016918 -0.08737788
000330 4a 06 78 3d 0c b8 e7 3c 27 1a d2 3d 65 29 26 bc
       0.060552873 0.028286003 0.102588944 -0.010141705
000340 bd e0 99 bd 9a 14 13 be 05 0d 71 bd 28 65 76 bd
       -0.075135686 -0.14363328 -0.058850307 -0.060155064
000350 30 05 81 bc 27 44 b2 3c d3 1d 9d bc 70 9b 1e bd
       -0.015749544 0.021761013 -0.01917926 -0.038722456
000360 1f 57 c0 bd 10 82 d5 bd ef 12 d2 bd cf 36 8c 3d
       -0.09391617 -0.10425198 -0.102575175 0.068463914
000370 17 35 97 3d f9 54 6a bc 69 f8 87 bd 52 59 8d bc
       0.07383173 -0.014302486 -0.06639177 -0.017254505
000380 ee 6d e2 bc 47 8f 70 bd e1 66 a0 bd 02 c7 04 be
       -0.02764031 -0.05873039 -0.078321226 -0.1296654
000390 36 1f 9c 3d c8 7d b1 bd 47 4d 56 3c 2e 32 2f bc
       0.076231405 -0.08666569 0.013079948 -0.010693116
0003a0 5e 8b dc bd 3d 70 93 3d fe f2 cf 3d e9 1e 4f 3d
       -0.1076877 0.07199142 0.10153769 0.050566588
0003b0 62 82 b1 3d 22 70 b9 3c c4 93 9e bc a7 56 08 bd
       0.08667447 0.022636477 -0.01935757 -0.033285763
0003c0 16 ee ae bb 7d 3f 63 bd 44 80 4b bd 58 54 1a bd
       -0.0053384406 -0.05548047 -0.04968287 -0.037678093
0003d0 b6 ac 21 bc f8 ac 4d be d3 62 a0 3d 96 36 c8 bb
       -0.009867838 -0.20085514 0.07831349 -0.006110023
0003e0 0d 36 68 3d e6 51 97 3d 5b be 1a be 00 0b bd 3c
       0.05669217 0.07388668 -0.15111677 0.023076534
0003f0 4d 29 c2 bc 5a ea 07 bd 6a 1f 42 bd 0b 2f 12 3e
       -0.023701334 -0.03318248 -0.04739324 0.14275758

sequential/dense_1/MatMul f4 [18, 32]
000000 42 74 08 be 1c 53 fa 3c c4 2b 9e be 86 fe 51 3d
       -0.13325599 0.030557208 -0.30892766 0.051268123
000010 12 d6 ee 3c 67 6d 25 be 77 54 af be d5 93 96 be
       0.029154811 -0.16155015 -0.3424413 -0.29409662
000020 57 ff 5c be cb 94 4c be e2 54 a4 be 8d 82 1a be
       -0.2158178 -0.19978635 -0.3209601 -0.15088864
000030 1c 3c 5e 3d 85 77 64 3e 72 9d e5 bd 05 84 7e 3c
       0.054256544 0.22311218 -0.11211671 0.015534406
000040 e0 a2 28 3e 1d d8 93 3e f2 cb 8d 3e 9d e0 9d 3d
       0.16468382 0.2887582 0.2769466 0.07708857
000050 f8 19 87 be 92 77 e8 3d c6 0b 5a 3e a0 ff ab be
       -0.26387 0.11350931 0.21293554 -0.33593464
000060 e3 ff 5d 3e 92 3f 04 be b7 bd aa be 08 a0 19 3c
       0.21679644 -0.12914875 -0.33347866 0.009376533
000070 29 20 ae 3e 0e 4e 2f 3b 41 79 e0 3d b8 8c 58 be
       0.3400891 0.0026749405 0.10960627 -0.2114743
000080 56 41 65 bd bc 28 69 3e 24 b8 0f be ef 72 cb be
       -0.055970512 0.22769445 -0.14035088 -0.39736125
000090 16 86 2e 3c 70 f6 40 be 09 c7 2c 3e 60 fe 7e 3e
       0.010652086 -0.18844008 0.16872801 0.24901724
0000a0 cc 19 9d be 79 0a 53 be d3 5c 68 be 86 81 68 be
       -0.30683744 -0.20609464 -0.2269166 -0.2270566
0000b0 90 b1 57 3e 56 76 a0 3e 63 f5 81 3d f5 b7 90 bd
       0.21063828 0.31340283 0.06345632 -0.07066337
0000c0 1e 26 97 3e 53 19 0a be 49 fb 9c 3e 6a d1 28 3e
       0.2952127 -0.13486223 0.30660465 0.16486135
0000d0 8c c6 1e 3e 8d 1e 2d be 78 3b ea 3d cc e2 e7 3d
       0.15505427 -0.16906185 0.11437124 0.11322555
0000e0 44 90 27 be 6e 5a 2c be d3 df f8 3d 16 78 2b bd
       -0.16363627 -0.16831371 0.12152066 -0.04186257
0000f0 c1 81 9c be ff 71 94 3e f3 1b 99 3e 97 15 e4 3d
       -0.30567744 0.28993222 0.29904136 0.111369304
000100 30 80 29 be 54 3c 30 3e 28 c9 f9 3b 5d f4 c6 3d
       -0.16552806 0.17210513 0.0076228566 0.09714577
000110 0b 4f ba be 60 0d a9 bc 34 3d 9d 3e a2 92 9b 3d
       -0.3638843 -0.02063626 0.30710757 0.07596327
000120 6f 88 81 bd 81 3e ed 3d 9a 2c 58 be 06 0d 7f 3e
       -0.06324851 0.11584187 -0.21110764 0.24907312
000130 be 5c 14 be 03 5e 7f 3e 70 b4 9a 3c df 9f 9c 3e
       -0.14488503 0.24938206 0.018884867 0.30590722
000140 67 21 40 be f9 4c b0 3e 5a 3c 4f 3d 63 ad 32 3e
       -0.18762742 0.34433725 0.050594665 0.17448954
000150 6c 49 40 be 6c c3 0d 3e 0f b6 7b be 0f 01 ce 3d
       -0.18778008 0.13844079 -0.24581169 0.10058796
000160 a6 b6 4c be 61 f8 bf bd 5f d3 2a be ec da 0f 3e
       -0.1999155 -0.093735464 -0.16682194 0.14048356
000170 06 f2 43 3d 81 5d db ba 0f 36 7e be 4a 84 4b be
       0.047838233 -0.001673624 -0.24825309 -0.19874683
000180 6d 02 ee bd da 3b 4c 3e 0d 96 ac bd fb bc 22 bc
       -0.116215564 0.19944707 -0.084270574 -0.009932752
000190 5d 1d 91 be b4 6b b3 3e f6 8e fb bc 4e 61 b7 3e
       -0.28342715 0.35043108 -0.030707818 0.35816425
0001a0 49 17 54 3e 41 a6 bb 3e 0d b1 3d 3c 1d 70 c9 3d
       0.20712008 0.3665028 0.011577857 0.09835837
0001b0 34 2a 09 3e ed 14 94 be dd 3e b5 3e 81 48 23 be
       0.13395005 -0.28922215 0.35399523 -0.15945627
0001c0 fa 6d 3d bd 41 1b 8f 3d 31 b3 92 be 57 43 95 be
       -0.04624746 0.0698762 -0.28652337 -0.2915294
0001d0 bf f0 78 be 32 b9 a9 be b3 71 8b 3d 90 52 76 be
       -0.24310587 -0.33149105 0.06808796 -0.24054933
0001e0 8f 63 77 3d ea f5 34 3d 99 63 64 be 98 9e 12 3d
       0.06039768 0.044179834 -0.22303618 0.035795778
0001f0 d1 68 62 3e 2a 15 7a 3e be 05 d1 be c2 94 1b 3e
       0.22110297 0.24422136 -0.40824693 0.15193465
000200 9c 24 71 bd ff dd 4d 3e 69 82 7f 3e e6 0f 2b 3e
       -0.058872804 0.20104216 0.24952091 0.16705284
000210 e1 7d 4d 3e 6d 08 2c 3d be 44 1a 3d 8a f4 95 be
       0.2006755 0.042000223 0.037663214 -0.2928813
000220 a5 ab 91 3d a6 4a 71 3b ec 05 0f 3e 43 22 7f 3e
       0.07112817 0.0036818176 0.13967103 0.24915414
000230 10 8c 82 be 18 87 8b 3e 17 18 8e 3e 75 4d 0d bd
       -0.25497484 0.27251506 0.27752754 -0.034497697
000240 04 99 76 3d 1c 07 6f be 1d 50 8b 3e 56 e7 3e bd
       0.06020452 -0.23342556 0.2720956 -0.046607338
000250 c2 f2 aa be 80 17 88 3e 39 03 8a be 1c 37 93 3d
       -0.33388335 0.2658043 -0.26955584 0.07188246
000260 98 3f 71 3e 87 2c a4 be f9 9c 88 be 06 51 77 be
       0.23559415 -0.32065222 -0.2668226 -0.24152002
000270 9a 4d 91 3e a1 1f ba 3d bb 30 4b be 5e 9f df 3d
       0.28379518 0.09088064 -0.19842808 0.10919069
000280 7f 5e 95 be a0 57 70 3c f7 41 1a 3e f7 a0 cb bc
       -0.29173657 0.014669329 0.15064226 -0.024857027
000290 db 09 07 be f6 94 53 be 93 86 0b 3d 1f 8a 76 3d
       -0.13187353 -0.20662293 0.034063887 0.060190316
0002a0 35 3f 6a 3e 11 9a ef 3d 7a 92 1e 3e 84 53 80 3e
       0.22875674 0.11699308 0.15485564 0.25063717
0002b0 ba d7 5d be aa 52 6a be af d7 00 be e7 0e b2 bd
       -0.21664324 -0.22883096 -0.12582277 -0.08694249
0002c0 51 da cf be 4e ed 0f be 39 30 6d be 1a 0b 94 be
       -0.4059625 -0.14055368 -0.23162927 -0.2891472
0002d0 b2 33 b0 be 83 58 24 3e 94 ce 81 3c e0 40 63 bc
       -0.3441444 0.1604939 0.015845574 -0.013870448
0002e0 56 3a 0b 3e da c2 64 be 66 98 6d 3e d1 0e ce be
       0.13596472 -0.22339955 0.23202667 -0.4024568
0002f0 a6 1e 92 be 26 cb 93 3e 0e 15 c8 be cb d0 2c be
       -0.28539008 0.28865927 -0.39078563 -0.16876523
000300 8d f8 43 3e 51 54 a0 be 07 16 28 bd e3 27 7a 3e
       0.19137783 -0.31314328 -0.041036632 0.24429278
000310 12 db 94 be e7 ee c4 3e e0 93 9b 3e e4 25 59 be
       -0.29073387 0.38463518 0.30386257 -0.2120586
000320 45 37 ba 3d 31 4a 8b bb f6 6e 48 3e 82 bf d4 bd
       0.09092573 -0.0042507877 0.19573578 -0.1038809
000330 65 3f 6a 3e 2e 74 f4 bd b8 d4 8d bc 2e 89 5e be
       0.22875746 -0.11936222 -0.017313346 -0.21732017
000340 49 96 38 3e 76 5d 98 3e 11 fd 6a 3e 7e b1 38 be
       0.18026079 0.29758805 0.229481 -0.18036458
000350 34 69 21 bd 9f e3 ca bd d3 b9 2f be e3 11 03 3e
       -0.03940697 -0.099066965 -0.1716073 0.12799792
000360 89 a3 2c be 6a 9f a5 3e 5f 43 b6 3e 7f 99 95 be
       -0.16859259 0.32348186 0.35598275 -0.2921867
000370 80 02 70 be 18 1d 31 3e 2e 00 7d be 05 1b a3 3d
       -0.23438454 0.17296255 -0.247071 0.07964138
000380 bd d8 69 bd 24 fb 65 3e e3 2b 06 bd 29 7a 9f 3d
       -0.057091463 0.22459084 -0.032756697 0.07786972
000390 e3 bb b3 3e 15 8e e1 bd ac b2 f6 bc 67 1c 0d be
       0.35104284 -0.11013428 -0.030114494 -0.13780366
0003a0 2c b0 e7 bc 58 c7 ad 3e 5a 86 b0 3d 9b 59 38 be
       -0.028282247 0.3394115 0.086193755 -0.18002932
0003b0 24 d0 c8 3e 48 3e 5b 3e 41 d4 47 3e 29 7a 25 bd
       0.392213 0.21410477 0.19514562 -0.040399704
0003c0 bf 2b 01 3e e5 ed e5 3c 05 b8 34 bd 45 4c 96 be
       0.12614344 0.028067539 -0.044120807 -0.29355064
0003d0 c9 8a 36 3e 62 19 8d be 6f 93 77 3e 9c 60 8f bc
       0.1782638 -0.27558428 0.24177335 -0.017502122
0003e0 09 bd 53 be 19 16 55 3d 7e 04 a8 3d 6a f5 0a be
       -0.2067758 0.052023027 0.08203982 -0.1357018
0003f0 e2 d9 be 3e b8 e4 91 be 60 cb 1f 3c 8c f8 a3 be
       0.37275606 -0.2849481 0.009753078 -0.32025564

sequential/conv1d/conv1d f4 [64, 1, 9, 1]
000000 da 1c 2b 3f a4 fc 3b 3d 68 28 1e bf 35 7c 29 bf
       0.668409 0.045895234 -0.61780405 -0.6620515
000010 7f d5 47 3f 80 40 96 be a1 e9 38 3f 47 c9 16 bf
       0.78060144 -0.29346085 0.7223149 -0.58900875
000020 dc 38 77 3d c2 0c 26 be e5 03 c4 be 78 ec 3a 3f
       0.06035696 -0.16215804 -0.3828422 0.7301707
000030 52 7f 79 3b 87 c6 ae 3e 46 1b c2 3c f9 a0 e4 3d
       0.0038070274 0.3413584 0.023694646 0.111635156
000040 cc 13 f7 be 63 26 ac bc fa aa 2b 3f 7f 03 20 3f
       -0.4825729 -0.021014398 0.67057765 0.62505335
000050 ab 7e b0 3e e8 3c a1 3e 37 03 43 3f 94 f2 b4 3e
       0.3447164 0.3149178 0.7617678 0.35341322
000060 73 49 24 bf 32 4e 9d be 49 4e a8 3e c6 01 20 3f
       -0.64174575 -0.3072372 0.32872227 0.62502706
000070 65 d4 88 be 8d 05 01 bf f5 d8 8f 3d 5a a9 8b 3e
       -0.26724544 -0.50399095 0.07023803 0.27277642
000080 09 34 0d bf 20 82 7f 3d 32 8f 36 3f d8 43 b7 be
       -0.55157524 0.062379956 0.7131225 -0.35793948
000090 5a 41 cc bd cf 2a 23 3f 13 64 3a be d0 cc 47 bf
       -0.09973402 0.63737196 -0.18202238 -0.78046894
0000a0 65 55 28 bf 16 05 26 3f b9 18 94 be 7a 24 1a bf
       -0.657553 0.6485151 -0.28925112 -0.6021191
0000b0 3a 5e 27 3e af d8 30 be 34 18 19 bf 9f e1 31 3f
       0.16344538 -0.17270158 -0.59802556 0.69484895
0000c0 84 e4 1f bf ab 73 27 be 78 9c 71 be 56 7f 39 3f
       -0.6245806 -0.16352718 -0.23594844 0.72459924
0000d0 91 82 15 be f1 a8 8b 3e 68 94 3e bf 71 68 b1 be
       -0.14600588 0.2727733 -0.744452 -0.34649995
0000e0 f9 a3 16 3e e1 7e 2e 3f 4d 0d db bc 5b c0 36 3f
       0.14710988 0.6816235 -0.02673974 0.7138726
0000f0 62 80 05 3e 08 11 57 be e8 89 95 3e df 49 2a bf
       0.13037255 -0.2100259 0.29206777 -0.6651897
000100 ca 03 03 3e b8 46 b3 be 15 38 08 bf 16 be 26 3f
       0.12794414 -0.35014892 -0.53210574 0.651338
000110 e6 c3 65 be eb b5 ee be ef 84 2e bf 9a 46 1b 3f
       -0.2243801 -0.46623167 -0.6817159 0.60654604
000120 b4 83 26 be 7c a4 8f 3d 00 b4 a2 3e a2 24 b8 3e
       -0.16261178 0.07013795 0.31777954 0.3596545
000130 bb 87 f1 be 6b c2 20 bf ae 11 10 3f 56 d5 0a 3f
       -0.47173867 -0.6279666 0.5627698 0.54231775
000140 bd c0 45 3e 99 47 da be ad 6a 07 3e cc b4 18 3f
       0.19311805 -0.4263275 0.13224287 0.59650874
000150 6f 61 c3 be bf 47 5b bf 18 a8 26 3e 99 82 98 be
       -0.38160273 -0.8565635 0.1627506 -0.29787138
000160 3a cf 32 3f 7f 96 3e 3f 40 8c d2 be bb ea 48 3f
       0.6984745 0.7444839 -0.41122627 0.7848317
000170 8e a9 d6 3e 01 08 fa 3e 4b a5 34 bf 4f 2b 29 bf
       0.41926235 0.48834231 -0.7056472 -0.6608171
000180 7a ed 28 3f 3a 5e 36 3f c5 8d 02 bf ce 16 48 bf
       0.6598736 0.7123753 -0.50997573 -0.781598
000190 df 2c d8 3e c0 12 fa be be d4 d8 3e 26 b6 8e 3e
       0.42221734 -0.4884243 0.4234981 0.27873343
0001a0 b2 83 01 3f b6 82 c9 be 86 a6 bd 3e bc 29 c0 be
       0.50591576 -0.39357537 0.3704111 -0.3753184
0001b0 d6 e6 0f bf 56 09 5f 3e ad db ef 3d 76 ae 87 bd
       -0.562116 0.21780905 0.11711822 -0.06625073
0001c0 3a d2 0c be 79 8b 0e bf 3c 9c 79 bd 22 50 b2 3e
       -0.1375207 -0.5568157 -0.060940012 0.3482676
0001d0 05 6f 1b 3f 4f c3 b3 3e fd c6 a0 be 98 3f 2d 3f
       0.6071628 0.35109946 -0.31401816 0.6767516
0001e0 5b ec fc be fb 55 46 bf a0 ca 12 bf 9b 96 7a 3e
       -0.49399075 -0.77474946 -0.5734043 0.24471514
0001f0 25 2e ac be af 00 29 bf 27 21 ab be f5 79 24 3f
       -0.33628955 -0.6601667 -0.3342373 0.6424859
000200 cf 00 c1 3e 6b 86 9f 3e 6f 0f d3 be 7d 8f 21 3f
       0.3769593 0.3115724 -0.41222712 0.6310957
000210 80 8c 22 bf a5 e9 ee be 97 9f 0e bf 9b 31 2b 3f
       -0.63495636 -0.46662632 -0.55712265 0.66872567
000220 3d 07 22 3f cd 19 c9 3e 22 6c b7 3c 73 78 f3 3e
       0.63292295 0.39277497 0.022390429 0.47552833
000230 4c 04 38 bf 8d c2 d6 be fd 6d 52 be 44 a0 34 3f
       -0.71881557 -0.41945305 -0.2054977 0.70557046
000240 b9 be 14 bf 7a ec 48 3e 97 71 f0 3e 92 4d f1 3e
       -0.5810352 0.19621459 0.46961662 0.47129494
000250 83 16 e7 3e b7 c7 f9 3e 7c 8b 53 bf 21 07 1c 3f
       0.45134363 0.48785183 -0.8263471 0.6094838
000260 84 70 33 3e 0f 12 50 3e 8f 40 0b 3e 01 1d 8a be
       0.1752339 0.20319389 0.13598846 -0.26975253
000270 60 d8 21 bf ad 2a 6c 3e 01 3e ae 3e c3 d1 57 3f
       -0.6322079 0.23063155 0.3403168 0.84304446
000280 e8 1c 07 bf 12 94 24 bf dc e9 28 bf a0 83 3d bf
       -0.5277848 -0.6428844 -0.6598184 -0.7402897
000290 c0 26 80 3e af 5e 97 bd 28 fe dc 3e b9 e8 b0 3e
       0.25029564 -0.07391106 0.43162656 0.34552553
0002a0 1c a7 38 bf 7a fa f9 be 05 e9 ec be 23 a4 16 3f
       -0.7212999 -0.4882391 -0.4627153 0.588442
0002b0 e2 f0 d4 be 4d 90 5b be c4 8a b2 be 30 d6 26 bf
       -0.4159003 -0.21441765 -0.34871495 -0.65170574
0002c0 a9 6f b6 be 55 a9 04 bf 1e 00 4a be b1 34 3f be
       -0.35632065 -0.5182088 -0.19726607 -0.18672444
0002d0 0b 8c 4d bf 00 e8 8a be 07 1c 93 be 84 25 07 3f
       -0.80291814 -0.27130127 -0.2873232 0.5279162
0002e0 42 df 2e 3f 13 bb 27 bf 1d b0 f0 3e 52 e9 f4 3d
       0.68309414 -0.6551983 0.47009364 0.11958565
0002f0 19 c8 ae 3e 49 e7 25 3f db 32 17 be 5f fc 41 bf
       0.34137037 0.6480604 -0.14765494 -0.7577571
000300 06 69 06 3f 09 83 4c 3e a1 6d 03 bf 5a 59 18 bf
       0.52504003 0.19971861 -0.51339155 -0.5951134
000310 3e 76 e2 be ac d9 56 be ec be e9 3e d3 a2 4b bf
       -0.44230837 -0.20981473 0.45653474 -0.79545325
000320 9c a7 38 be 39 ab 8d 3e 90 4e e2 3e 61 8d bb bd
       -0.18032688 0.27669695 0.44200563 -0.09157825
000330 fb cf b4 3e 8f 45 3e bf e8 8a 49 3f b5 18 ed 3e
       0.35314927 -0.7432489 0.7872758 0.46307912
000340 12 61 52 be 40 9e d0 bd 50 7e be 3e 31 7f 2d bf
       -0.20544842 -0.10186434 0.37205744 -0.67772204
000350 c1 25 26 bf 2f 13 8e 3d c1 03 3d bf d8 a0 46 3f
       -0.6490136 0.06937253 -0.73833853 0.7758918
000360 37 b4 ea be d5 3f dc be b2 ad 20 bf d6 b6 c4 3e
       -0.45840618 -0.4301745 -0.6276504 0.38420743
000370 73 dc e8 be 47 41 27 bf 48 d4 4e bf 36 04 c6 be
       -0.4548069 -0.6533398 -0.80792665 -0.38675088
000380 f7 b0 4e 3e f3 b1 73 be ae 22 45 bf 96 aa ae 3b
       0.20184694 -0.23798351 -0.7700604 0.005330394
000390 04 ca 0f 3f 04 08 ca 3e 5e c0 01 3f 19 a1 72 3e
       0.56167626 0.3945924 0.50684154 0.23694266
0003a0 37 9b b9 3d e5 29 79 3e e3 44 35 bf 95 1a c9 3e
       0.09062808 0.24332388 -0.7080824 0.39278093
0003b0 8b 44 4c 3f c9 83 c9 be 65 a0 0f 3f 51 ef 8a be
       0.7979209 -0.39358357 0.5610412 -0.2713571
0003c0 20 fc ff be 8b 54 a7 3d 98 b8 d0 be 18 5d 59 ba
       -0.49997044 0.08170422 -0.40765834 -0.0008291765
0003d0 49 c4 34 3f 5e bc 94 bc ff d5 a0 3e 65 3a 4c be
       0.7061201 -0.018156227 0.31413266 -0.19944151
0003e0 34 db 3f bf d9 90 b3 3e f2 23 36 bf 94 29 05 bf
       -0.7494385 0.35071447 -0.711486 -0.5201657
0003f0 3b b0 e6 3e 05 1f 8b 3e 0a 04 14 3f 49 4e cc 3c
       0.45056328 0.27172104 0.57818663 0.024939673

sequential/conv1d_1/conv1d f4 [32, 1, 9, 64]
000000 5d 4d 8e 3d 19 0e a2 bd c7 bd 16 3c ef 49 8b bd
       0.069483496 -0.07912845 0.00920052 -0.06801211
000010 e8 b2 47 3c a4 44 a8 3d 6d d7 df bd 37 8c 34 3d
       0.012188651 0.08216217 -0.10929761 0.04407903
000020 f6 f1 e3 bd 62 3f 79 3d 79 d6 f0 bd ce 89 f0 3d
       -0.11130135 0.060851462 -0.117596574 0.11745034
000030 22 7a 52 3c d8 64 15 bd 7f 58 c0 3d dc 25 23 bd
       0.012846502 -0.036473125 0.09391879 -0.039831027
000040 8e a0 81 3d ce d5 b3 3d 80 d1 c0 3d 10 cd 88 bd
       0.063294515 0.087810144 0.09414959 -0.066797376
000050 7d bb 0d bd 15 a8 66 3d b8 c4 f6 bd 62 14 11 bd
       -0.03460263 0.05631264 -0.1204924 -0.03541983
000060 d0 3b 01 3e 69 38 91 3d ba e1 e1 3d 1e 90 49 3d
       0.12620473 0.070908375 0.11029382 0.049209706
000070 2a 80 f9 bc f7 5d 30 bd b3 6d b6 3d 93 97 36 3d
       -0.030456621 -0.04305836 0.08907642 0.044578146
000080 8a e0 30 3c c3 ec 08 be 47 35 8e bd cc 83 ea bd
       0.010795722 -0.13371567 -0.069437556 -0.114509195
000090 7c 8e 6d bd 98 43 a7 3d be 6f cd 3c 5a 30 82 3d
       -0.05799721 0.08167189 0.025077697 0.063568786
0000a0 fe 62 77 3d 7e 4b a7 bc 88 d7 c9 3c 7c 4c e3 3d
       0.06039714 -0.02042174 0.024638906 0.110985726
0000b0 7a e6 7e bc 81 31 61 3d 9f 55 21 3d 47 fd 3a bd
       -0.01555788 0.05497885 0.039388295 -0.0456517
0000c0 bc 1f 1f 3d 72 4b af bd 67 e2 89 3d 63 55 ef bd
       0.038848624 -0.08559312 0.06732636 -0.11686208
0000d0 30 bb e8 3d a9 19 95 3d 36 aa d1 bd 6d af 0a 3d
       0.11363828 0.07280285 -0.10237543 0.033858705
0000e0 10 b6 33 bc 34 02 6e bc 2e 96 96 bd bd f8 9a 3c
       -0.0109687 -0.014526892 -0.07352863 0.018917436
0000f0 0d 36 de bb 08 4d ff bd cf ff 8f bd 62 62 91 bd
       -0.0067813457 -0.124658644 -0.070312135 -0.07098843
000100 1f 36 9b bb 82 ef 2f bc 84 61 f7 bc 4a 7b dc 3a
       -0.0047366763 -0.010738255 -0.030197866 0.0016821411
000110 b1 43 04 bd e8 c2 e1 bc da af 96 3d b2 f0 54 3d
       -0.032291118 -0.027558759 0.0735776 0.051987357
000120 d2 8b ac bd c1 07 cc bb f7 9f ba 3b 5c 6e e2 bd
       -0.08425106 -0.0062265103 0.005695339 -0.11056206
000130 2b 99 50 3d 4a 24 29 3d 2d 94 6c bd ec 38 98 bd
       0.050927322 0.041294374 -0.0577585 -0.07432732
000140 f1 d0 ab bd 8d 05 90 3d 05 59 a9 3c 83 83 66 bd
       -0.08389462 0.07032309 0.02067233 -0.056277763
000150 a6 17 a4 bd c1 81 1c 3c 26 a8 eb bd 07 e5 59 3d
       -0.08012323 0.00955242 -0.11506681 0.053196933
000160 50 c4 c8 bc 50 0b bd bd 80 22 1a 3c 68 09 a6 3d
       -0.024507672 -0.09230673 0.0094076395 0.08107263
000170 08 a7 97 bc f3 b0 8e 3c f1 5c 00 3b e7 49 99 bd
       -0.018512264 0.01741836 0.0019586647 -0.07484799
000180 f6 e0 e0 bd 5b 58 98 3d 6c 7a bc 3d 57 8f 82 3d
       -0.10980408 0.074387275 0.092030376 0.06374996
000190 90 3b 03 3e 1d 14 9c 3d dc a7 1c 3d 99 b6 6e bd
       0.1281569 0.07621024 0.03824602 -0.058279607
0001a0 cb 9a d5 bd dc 1e ac bd f7 83 38 3c 7a 3a 70 bd
       -0.10429915 -0.084043235 0.011261932 -0.058649518
0001b0 b2 f5 6d bb 1c f7 06 3d c8 72 6c 3d f9 24 b1 3d
       -0.0036309776 0.032950506 0.05772665 0.0864963
0001c0 22 93 c2 bd cd 70 d5 bd 7a fe 3a bd fd b5 4e 3b
       -0.095007196 -0.10421906 -0.045652844 0.003154158
0001d0 37 9f b6 3d 21 0d d0 3d 06 86 91 3c 63 86 7b 3d
       0.089170866 0.10158754 0.017764103 0.061407458
0001e0 bc f3 07 be db 50 c1 3d ba fc 97 3c a4 43 a8 3d
       -0.13276571 0.0943925 0.018553127 0.082160264
0001f0 04 d7 5e bd a6 6a a6 bd 40 54 2b bd 01 ac ea bc
       -0.054404274 -0.0812581 -0.041828394 -0.028646471
000200 00 e3 a3 3d 38 83 a9 bc 7e 5b c4 bd cd d2 0f 3e
       0.08002281 -0.020692453 -0.09587763 0.14045258
000210 90 33 41 3d 4e 37 cd bd 06 79 f8 bd 01 d7 1b bd
       0.047168314 -0.10020314 -0.121324584 -0.03804684
000220 ab 80 85 bd a7 d9 c4 bd ae ae f2 bd c4 c9 99 3b
       -0.06518682 -0.096118264 -0.11849724 0.004693242
000230 e0 1f 18 bb 57 b5 72 3d d9 be 93 3d 86 64 64 3d
       -0.0023212358 0.05925497 0.07214136 0.05575993
000240 d2 f6 c3 bc b8 c2 a7 3c ed b3 35 3c 0b 2f 90 bd
       -0.023921404 0.020478591 0.011090261 -0.07040223
000250 cf bb d1 bc 9e 01 84 bd 6c 79 c8 bd 85 a5 0c bd
       -0.02560225 -0.06445621 -0.097887844 -0.03433754
000260 44 ac 93 3c 4c d9 48 3c 3a 60 90 bc 9a 61 19 3d
       0.018026479 0.012258839 -0.01762401 0.037446596
000270 b8 82 49 bd c1 0d d0 bc 60 50 5d 3c 33 1e c1 3d
       -0.04919693 -0.025397183 0.013507932 0.09429588
000280 a2 84 e7 3c 84 6c e3 bb fd 88 a6 3c 60 47 33 bd
       0.028261486 -0.0069404263 0.020328993 -0.04376924
000290 45 0e 7c ba ea 04 98 bd a1 1b 70 bd 07 dc 83 3b
       -0.00096151634 -0.07422812 -0.0586201 0.004024032
0002a0 a6 0e 80 3d df db 99 bd c3 a8 ea bd 4a 52 36 3d
       0.06252794 -0.0751264 -0.1145797 0.04451207
0002b0 01 67 22 ba 9b 2c 85 3d da 25 50 bd c5 16 bb 3d
       -0.00061951583 0.065026484 -0.050817348 0.09135202
0002c0 4e fc 91 bd 3d 07 f0 bd 95 58 90 bb b6 d7 f9 bd
       -0.071282014 -0.117201306 -0.004405091 -0.12199347
0002d0 93 2f 95 3d f5 0d 25 3d 36 86 b6 bd 70 97 1c 3d
       0.07284465 0.040296514 -0.089123175 0.03823036
0002e0 f0 59 1a bd a8 99 5d 3d f8 0a c3 3d a7 04 4a bd
       -0.037683427 0.054101616 0.095235765 -0.049320843
0002f0 38 84 fc bd a7 41 0f 39 45 b7 0a 3e b0 71 bf 3d
       -0.12329906 0.00013662 0.13546474 0.09347856
000300 f5 4c 48 bd 3c 43 5c bd 0a b1 3c 3d e0 ff 0f 3e
       -0.048901517 -0.053775057 0.046067275 0.14062452
000310 83 f9 65 bc 66 ae a5 3d d4 3e 6e bd 90 cf 8b bd
       -0.014036539 0.080899045 -0.058165386 -0.06826699
000320 0a dd c4 bd 58 f7 7a bd 9b 8a 97 bd 82 44 bf 3d
       -0.09612472 -0.06127104 -0.07399484 0.09339239
000330 53 a5 00 bc 8a 68 8c bc 90 b7 cf bd b0 bd 41 bc
       -0.007851916 -0.017139692 -0.10142434 -0.01182501
000340 fb b1 bd 3c a8 cf 81 bd 50 de 94 3d f9 44 3d bd
       0.023156157 -0.063384354 0.07268965 -0.046208356
000350 19 99 3e bd d1 42 9c bd 55 c2 93 3d 3a de f8 bd
       -0.046532724 -0.07629932 0.072148 -0.12151761
000360 9e 42 b5 3d b7 f3 c0 bd 34 57 c6 bd 4b a1 87 bc
       0.08850597 -0.09421485 -0.096846014 -0.016556403
000370 c9 d6 fd bd d6 32 d7 bb 5f 0c 88 bc c9 b2 d3 3d
       -0.12394483 -0.0065673394 -0.016607461 0.10336835
000380 ea 68 56 3d f9 db f4 3c 23 5a 78 3d a3 49 ac bd
       0.052346148 0.029890047 0.060632836 -0.084124826
000390 75 09 1e bd 52 8e b4 3d 21 b8 a9 3c 47 68 32 3d
       -0.038583238 0.08816208 0.020717682 0.043556478
0003a0 2d b9 0b bd 87 10 8d 3d 1d 87 20 3d f0 05 2d 3d
       -0.034112144 0.06887918 0.039191354 0.04224199
0003b0 33 a9 c8 3d d6 05 48 3d 8b db 8e bd 38 64 93 bd
       0.09797897 0.04883369 -0.06975468 -0.071968496
0003c0 03 32 db bd b6 44 a8 bd 4c d4 ca bc c4 cf 00 bc
       -0.10702898 -0.082162306 -0.024759434 -0.007862035
0003d0 c0 89 e2 3d 91 39 51 3d 15 f7 2e bc 1a 48 81 bd
       0.1106143 0.05108029 -0.010679026 -0.063125804
0003e0 49 f6 a0 bd 20 f8 f5 bd eb bb 5a bd a2 26 31 bb
       -0.07859475 -0.12010217 -0.05340187 -0.0027031084
0003f0 68 8d 8b 3d c1 b6 7a bd 7a 13 a2 3d b7 23 e0 bc
       0.068140805 -0.061209444 0.07913871 -0.02736078

sequential/conv1d_2/conv1d f4 [32, 1, 9, 32]
000000 ff 6b d5 3d 8b 51 19 bd 7e ca 6a 3d 69 ec eb 3d
       0.10420989 -0.03743128 0.057322018 0.11519701
000010 3e 30 14 3c 24 0a 88 bc a6 61 a5 3d 54 8f b2 3d
       0.009044705 -0.016606398 0.080752656 0.08718744
000020 b4 48 c1 3d cc 09 25 bd 29 aa fe 3b 7a 6b 21 be
       0.09437695 -0.040292546 0.0077717495 -0.15763655
000030 15 ba 75 3c c4 fd 92 3b bb 69 86 bd 93 89 5b 3d
       0.014997979 0.0044858176 -0.06563135 0.053597998
000040 a9 5e 8d bd 72 3a 0f 3c df 44 da 3d 6d cf 8a bc
       -0.069028206 0.008741962 0.10657667 -0.016944611
000050 5f 73 2d 3d 16 dc 8d bd 7f 71 9b 3d 06 4b 76 3b
       0.042346355 -0.06926744 0.07590007 0.0037581339
000060 9c 3e 01 be 88 5e 0f 3d 76 57 7b bd c4 df 0c 3e
       -0.1262154 0.03500226 -0.061362706 0.13757235
000070 ac 75 85 bb fc e2 e2 bc 9e 29 24 bd 81 15 8a bd
       -0.0040728655 -0.027696125 -0.04007875 -0.06742383
000080 a7 f8 8b bd 83 b9 67 3d 64 4d 8f 3d 1d 4e 15 3e
       -0.06834536 0.056573402 0.06997183 0.14580579
000090 92 4f f6 3d a6 9f e2 3d df f5 aa bc 1c 56 b5 3d
       0.120268956 0.11065607 -0.020869194 0.08854315
0000a0 3f c2 56 bd 1a cf e0 bd f2 3d ef 3d f2 f4 f0 bd
       -0.05243134 -0.109770015 0.11681737 -0.117654696
0000b0 58 1d ee 3d c0 ce bd 3d 1c 8c a3 bd 85 ac 7e 3d
       0.116266906 0.0926795 -0.07985708 0.062176246
0000c0 37 7c a1 bd 25 f8 85 bd 82 41 1e 3e 01 56 ca bd
       -0.0788502 -0.065414704 0.15454677 -0.09879685
0000d0 e3 d2 9e 3d d0 78 c1 3d 1e 0d d9 3d 24 78 b9 3d
       0.07755067 0.09446871 0.10598205 0.09056118
0000e0 68 da 51 3d 97 09 0e 3e d7 dc 34 3d 13 33 60 bd
       0.05123368 0.13870846 0.04415592 -0.05473621
0000f0 73 2a 08 3e e4 12 1b 3e b2 be e7 3d 67 32 fa 3c
       0.13297443 0.15143925 0.11315669 0.030541612
000100 e0 cb d5 3d 08 2a 8a bd 52 9a f6 3d b5 bf bb 3d
       0.10439277 -0.06746298 0.12041153 0.091674246
000110 1e af 0f 3c 6a ff 09 bd 73 b2 0e be 25 16 d1 3a
       0.008769779 -0.033690847 -0.1393526 0.0015952034
000120 cf 4c c7 bd 54 61 2f 3e 3c 4c 94 bd 85 eb 71 3d
       -0.09731447 0.17126971 -0.07241103 0.0590625
000130 d7 ad 01 be b4 b2 3d bd 3b e9 10 bc 97 a2 83 bd
       -0.12663971 -0.046313003 -0.008844669 -0.06427496
000140 82 d0 5c 3d ce 14 d7 bd 53 62 b8 bd 36 f1 bd 3c
       0.053909786 -0.10502015 -0.09003129 0.023186307
000150 23 aa 8d 3c 85 38 6c bd 8d 09 98 3d 33 7a 96 3d
       0.017293042 -0.05767109 0.07423697 0.073475264
000160 af 2c 10 3d ae 2b 52 3d 47 73 d9 3d 2a 69 2f 3e
       0.035198864 0.051311187 0.106176905 0.1712996
000170 d5 8c 90 3d 90 66 0d be a0 65 81 3c 77 c2 a3 bd
       0.070581116 -0.13808656 0.015795529 -0.079960756
000180 6a 7c bc bc 54 d8 ae 3d 60 4f 8b bd 05 17 ad 3d
       -0.023008544 0.08537355 -0.06802249 0.08451656
000190 5a 02 a5 bd 09 27 bc 3d a2 98 a5 3d 4f cf e5 bc
       -0.08057089 0.09187133 0.08085753 -0.028052954
0001a0 1c c6 d2 bc 22 4b 0a 3b a5 66 ca bd 88 be 53 ba
       -0.025729232 0.0021101912 -0.09882859 -0.00080774026
0001b0 34 bf 01 3d 00 d0 b8 bd ff b1 f9 bd 14 56 97 3d
       0.031676486 -0.09024048 -0.12192153 0.07389465
0001c0 bd d2 67 bd 64 6d 39 3d 95 d1 36 3d a3 83 05 be
       -0.05659746 0.04527034 0.044633467 -0.13038497
0001d0 da ff 89 3d 76 9b ec bd e3 a7 c9 3d f9 fc b4 bb
       0.06738253 -0.11553089 0.09846475 -0.0055233208
0001e0 45 ef cd 3d c7 67 88 bc 7d bb 96 bc f3 3e 4b 3d
       0.10055403 -0.016651047 -0.018399948 0.04962058
0001f0 70 4f b8 bd 2f b9 c1 3d 12 e6 ee 3d bb 08 26 bd
       -0.089995265 0.09459149 0.11664976 -0.04053567
000200 57 85 ee bd c1 97 dd bc d1 59 c8 3d 33 a1 b7 3d
       -0.11646526 -0.027049901 0.09782756 0.08966293
000210 39 f9 17 bd 6b 15 be bd 79 81 9e bd 9b d7 e8 bd
       -0.03710291 -0.09281429 -0.07739539 -0.113692485
000220 7e 8f 35 3d 00 49 8f 3d 05 36 73 ba 25 07 0c 3d
       0.044326298 0.069963455 -0.0009277764 0.0341865
000230 ce 77 50 bd 45 14 4a 3d 4a 6d f1 3d de 44 12 bd
       -0.050895505 0.049335737 0.11788423 -0.035710208
000240 3f 2c 8a 3c 37 e3 e7 3d 82 70 6e 3a 28 5e fc 3c
       0.016866801 0.11322635 0.00090957445 0.030806616
000250 9d 10 5e 3b 42 10 7f bd 0c bb 29 be 34 b9 8c 3c
       0.0033884414 -0.062271364 -0.16575259 0.017178155
000260 63 a8 27 be 57 15 8b bd 82 dd 2f 3a c7 d1 cc 3d
       -0.16372828 -0.067911796 0.00067087275 0.10000949
000270 a8 52 d2 bd b4 e5 01 bd 04 07 76 3d e5 df 7e bd
       -0.10269672 -0.031713203 0.060065284 -0.06222524
000280 6f 59 13 be d7 d8 d4 bd d3 33 8b bc 8d d9 36 3d
       -0.14389585 -0.103929214 -0.016992485 0.044641066
000290 ee 7b a6 3d 6c 13 5f 3d 50 a1 f8 bc 2f 5a b0 bd
       0.081291065 0.05446188 -0.030350357 -0.08610951
0002a0 51 fd e4 bd 35 c6 17 bd 31 12 06 be 85 8a 9a bd
       -0.11181129 -0.03705426 -0.13092877 -0.07545952
0002b0 81 10 b6 bd df f3 bb 3d 63 09 05 3d bc 9b 89 3c
       -0.088898666 0.09177374 0.032479655 0.016797893
0002c0 7d 8d 07 be 0b ce 74 bd a9 29 a3 3c d9 b5 c2 bd
       -0.13237567 -0.05976681 0.019917326 -0.09507341
0002d0 0a c6 d2 bc 96 06 dd 3c 33 f3 e5 bd 83 78 74 bd
       -0.025729198 0.02698068 -0.11228027 -0.05968524
0002e0 ef d7 0f be 22 68 87 bd 02 fd 81 3d b7 03 1e bd
       -0.14047216 -0.06611659 0.063470855 -0.03857776
0002f0 ca 34 25 3d a1 72 15 be ae 83 22 3d 90 a2 fa bd
       0.040333547 -0.14594509 0.03967636 -0.122380376
000300 01 74 b3 3c a3 48 cd bc 8f be 2e bd 83 07 89 bc
       0.0219059 -0.02505905 -0.0426622 -0.016727215
000310 d5 e9 1c 3d b2 bc a7 3c 77 ce 39 3d 3e 92 12 3d
       0.038308937 0.02047572 0.045362916 0.035784
000320 ac 1c 0d be 18 a4 91 bd f8 c8 fa bd 78 96 22 bd
       -0.13780469 -0.071113765 -0.12245363 -0.03969428
000330 e6 43 28 3d 0e fe d8 3d 03 ad 63 3d 56 b4 d1 3c
       0.041080378 0.10595332 0.05558492 0.025598686
000340 83 51 06 be 2e 0c e2 3b b9 47 7d 3d ff f4 40 3d
       -0.13117032 0.0068984246 0.06183598 0.047108646
000350 ef b6 a2 3d b9 84 15 bd 9a 57 60 3d bc 49 13 be
       0.07945048 -0.036503527 0.054771043 -0.14383596
000360 89 c3 95 3d 0e b1 e6 bd 7a da 11 be 11 dc 3d bd
       0.07312686 -0.11264239 -0.14243498 -0.04635245
000370 41 6e 98 bd c2 8f df 3d 24 bf 9d 3d 8a e0 b9 3d
       -0.07442904 0.109160915 0.07702473 0.090760306
000380 8c ed a6 bd ec 14 2f 3d f3 97 04 bd 98 e3 92 3d
       -0.08150777 0.042744562 -0.032371473 0.07172316
000390 3b 2f da bc 7f bb 65 bd 26 bc d5 bc 40 1d 02 bb
       -0.02663385 -0.056087013 -0.026090693 -0.001985386
0003a0 7c cf 8c bc af 63 16 be 2f 60 99 3d 03 b1 06 be
       -0.01718878 -0.14686464 0.07489049 -0.13153462
0003b0 e9 e4 a6 3d 15 ec 1e 3e 68 f4 00 be 72 d3 1c bd
       0.0814913 0.15519746 -0.12593234 -0.038287587
0003c0 21 58 82 3d 8d 0f 30 3d 07 a7 cc bd 81 5c 9e 3c
       0.063644655 0.04298358 -0.099927954 0.019331219
0003d0 1b a6 d4 bd c7 50 29 be 9a 1f 35 bb 80 48 9d 3d
       -0.103832446 -0.1653472 -0.0027637244 0.07679844
0003e0 b6 81 92 bd b6 bf 9d bc e1 6f 23 bc f3 7c fb 3d
       -0.07153647 -0.019256454 -0.0099754045 0.122796915
0003f0 d7 36 8a bd 6c 64 b3 3d e2 95 0c 3c 13 18 be bc
       -0.06748741 0.08759388 0.008580657 -0.023204839

sequential/conv1d_3/conv1d f4 [32, 1, 5, 32]
000000 94 3c b6 3d 02 a0 e3 bd a4 48 5f 3e f4 02 6e bb
       0.08898273 -0.111145034 0.21805054 -0.0036317678
000010 13 09 34 be 2b b4 c5 bd 4d 15 fe 3d 1d 35 c9 bd
       -0.17581587 -0.09653505 0.124064066 -0.09824584
000020 5b 24 97 3d 8c a1 ae 3b 7f 1c 25 be a6 19 f3 3c
       0.07379981 0.0053293165 -0.16124152 0.029675316
000030 dc 2b 4f 3d 95 35 b6 3c db e9 21 3d 83 73 0b 3e
       0.050578937 0.022242347 0.039529663 0.13618283
000040 20 78 63 3d 10 36 15 3d 4b b8 bb bd 75 55 40 3e
       0.055534482 0.03642851 -0.091660105 0.187826
000050 f6 1b ca 3c 23 7a 6a 3e 61 13 e4 bd c4 66 9d 3c
       0.024671536 0.22898154 -0.11136509 0.019214042
000060 5d 5b d2 3c c9 11 2b 3e 61 91 1d 3e 1f 93 29 be
       0.025678331 0.16706003 0.15387489 -0.16560028
000070 62 c1 fb 3d bb 19 b4 3d 97 a2 52 3e 75 a1 32 bd
       0.12292744 0.0879397 0.20569836 -0.04361101
000080 88 fa 33 3d a8 98 9f bb 12 9f 8f 3d 9e 13 0b 3e
       0.043940097 -0.004870493 0.07012762 0.13581702
000090 70 fa d4 bd 84 a3 1a 3e a9 2e 91 3d 0c 55 07 be
       -0.1039933 0.15101439 0.07088978 -0.13216037
0000a0 f8 d7 f6 3d 82 2d 41 be ec df 13 3c d9 e3 58 be
       0.120529115 -0.18865016 0.009025555 -0.21180667
0000b0 07 5a 1f bd e5 a2 cb bb 47 d4 05 3c 96 7f 07 3e
       -0.038904216 -0.006214487 0.008168287 0.13232264
0000c0 f3 9f 10 be 02 e5 d5 3d 28 be 40 3e ae 45 e9 3d
       -0.14123516 0.104440704 0.18822539 0.113902435
0000d0 2a 96 bb 3d 3c 8d 68 3c ec bd 2b 3e d6 3b dd 3d
       0.09159501 0.014193829 0.16771668 0.108024284
0000e0 53 a6 4b be 79 e3 6c bb ae 13 49 bc 3e 2b 28 3d
       -0.19887666 -0.0036146326 -0.012272758 0.041056864
0000f0 19 cc 0f 3e a7 55 e6 bd 09 1f 24 3d 51 13 0f 3d
       0.14042701 -0.11246806 0.04006866 0.03493053
000100 40 d5 1a be 53 6d 83 bd e6 c5 38 bd 08 82 0f bd
       -0.15120411 -0.06417336 -0.045110606 -0.035036117
000110 e2 39 0d be 27 86 5c 3d 5d d4 df bb 9b 8c 18 3e
       -0.13791612 0.053838875 -0.0068307356 0.14897387
000120 46 c6 4e bd bb 52 79 be 60 34 51 be d9 68 0b be
       -0.050482057 -0.24347965 -0.20430136 -0.13614215
000130 b1 d0 11 bd e1 ca 29 3c d8 c3 3b 3e 9e 36 bf 3d
       -0.035599414 0.0103633115 0.18336427 0.09336589
000140 90 83 fb 3d 02 96 c2 3d ff 90 2d 3b 90 4d 96 bd
       0.12280953 0.09501268 0.002648413 -0.073390126
000150 fc 92 33 be 79 6a 0d 3e 80 f5 0e be 3c 79 37 bc
       -0.17536539 0.13810147 -0.13960838 -0.011198338
000160 79 7a 88 3d f4 ae a0 bd e9 bf f9 3d 91 75 77 bd
       0.06663985 -0.0784587 0.12194807 -0.060414854
000170 b5 dc 11 be e4 85 71 be 00 70 30 bd db 19 0b 3e
       -0.1424435 -0.23586231 -0.04307556 0.13584082
000180 84 82 34 3e 7d 8f 57 3e 1f bd 2b 3e a8 1e 36 be
       0.17627913 0.2105083 0.16771363 -0.17785132
000190 39 98 45 be f8 d4 13 3e 07 25 e4 bd 45 93 6f bd
       -0.1929635 0.1443671 -0.11139875 -0.058490057
0001a0 86 a9 d9 bd 82 8c 9b bd 42 e1 1e 3e c5 94 1b be
       -0.10628037 -0.07595159 0.15515617 -0.1519347
0001b0 25 d7 4f 3e ab f8 29 be 36 a1 31 3e 5b 46 43 be
       0.20296915 -0.16598766 0.17346653 -0.19069807
0001c0 68 6e 83 bd e0 ab 36 3e 2b 21 ea 3a ec f7 b6 3d
       -0.06417543 0.17839003 0.0017862668 0.08934006
0001d0 31 13 44 be 13 53 1e 3e a2 7b 78 3b 0b 2c 42 3c
       -0.19147946 0.15461378 0.0037915488 0.011851321
0001e0 24 d3 47 be 28 29 ca 3d 0a 10 7b 3b ce 36 34 bd
       -0.19514138 0.09871131 0.003830912 -0.04399758
0001f0 f5 eb 0b be 78 e9 8b bd c0 b3 27 3d dc 30 b1 bb
       -0.13664229 -0.0683164 0.040942907 -0.005407436
000200 da 7f 67 bd 69 05 31 3e 8f c8 de bd 95 0c 18 be
       -0.056518413 0.1728722 -0.10878097 -0.1484855
000210 de 97 2d be 5d b8 05 bd 38 e2 93 bd c3 99 7a bd
       -0.16952464 -0.032646526 -0.07220882 -0.061181795
000220 46 26 3b 3d c6 69 85 be ea 62 72 3c 85 cb 31 3e
       0.045690797 -0.2605726 0.014794091 0.17362793
000230 6f dc 99 bd bc 56 69 3d 9e 53 2a 3e a4 b4 27 3d
       -0.075127475 0.056967482 0.1663346 0.040943757
000240 db 20 49 be 30 1d 31 bd a2 a5 5b 3d bd d4 97 3d
       -0.1964144 -0.043240726 0.053624757 0.074136235
000250 26 40 ba bd cb a4 4b bc 7b 33 0a be f6 87 60 3e
       -0.090942666 -0.012429426 -0.134962 0.21926865
000260 da db 66 3d c2 fe c6 3d 05 33 9d 3d 4b 02 07 3e
       0.05636201 0.0971656 0.07675747 0.13184468
000270 be 15 83 3d 17 dc 7b bd 4c 79 ed 3d 44 a0 62 3e
       0.06400631 -0.06148919 0.11595401 0.22131449
000280 4d 75 4e 3e 97 36 c3 bd d0 b6 49 3b 83 81 24 be
       0.20161934 -0.095318966 0.003077913 -0.1606503
000290 27 f6 f2 3d 90 f7 3b 3d 51 a1 31 be 40 d2 ca 3c
       0.11863356 0.04589039 -0.17346694 0.024758458
0002a0 13 82 19 be 95 77 03 3e 33 6f 21 3e 92 f3 e9 3d
       -0.14991026 0.12838586 0.15765075 0.114234105
0002b0 d4 a8 a3 3d e3 3f 39 3e 23 58 f6 3d 7e 05 50 be
       0.07991186 0.18090777 0.120285295 -0.20314595
0002c0 4c b9 d1 3d 5e e4 48 3b ae 85 4a bc 1d 92 0f 3e
       0.10240421 0.0030653696 -0.012360973 0.14020582
0002d0 81 aa 1e bd a0 2c 11 3e eb f4 2d 3e e2 7d 24 3e
       -0.038736824 0.1417718 0.1698796 0.16063645
0002e0 c0 3f a4 3d 4b 8a 08 be 77 cd a5 3c ae 6d 38 3e
       0.08019972 -0.13334005 0.020239575 0.1801059
0002f0 f9 a9 4e 3e 92 5c 09 3d 87 99 14 3e b3 0d d0 bd
       0.20182027 0.033535548 0.14511691 -0.10158863
000300 72 8a 8b bd 7d 68 75 bd 6a f9 54 3c f9 ad 22 be
       -0.06813516 -0.0599141 0.012998918 -0.15886678
000310 1f 41 b8 3c 7a d1 e9 3c 4d 26 08 be 6d ad f1 bd
       0.02249199 0.028542269 -0.1329586 -0.118006565
000320 ba e9 d3 3d 1c 74 08 be 45 04 43 3e 17 3e 0b bd
       0.10347314 -0.13325542 0.19044597 -0.03399476
000330 c9 aa 6f bb 8f 7a 07 3d 93 1d 8d bd cd 0e 20 3e
       -0.0036570302 0.033075865 -0.068904065 0.15630646
000340 61 e5 f4 bd 41 87 3e be 89 80 c6 bd f6 a9 9f 3d
       -0.11957813 -0.18606283 -0.09692485 0.07796089
000350 9d f5 12 3e 68 f2 06 3e 4c 51 28 bd 41 a2 5f bd
       0.14351507 0.13178408 -0.041093156 -0.054598097
000360 fc b3 73 bd 7f 64 b2 3d 44 2b 69 3d f4 8c 98 3d
       -0.05949782 0.08710574 0.056926027 0.0744876
000370 24 90 f1 3d 7a a6 0c be 55 f5 5b bc 77 0f 29 bd
       0.11795071 -0.13735381 -0.013425191 -0.041274514
000380 1e 9b 4e 3e 07 f8 42 be 45 f5 23 3e da 4f f3 bd
       0.2017636 -0.19039927 0.16011532 -0.11880465
000390 f5 5b b6 3d ef 63 07 3d 49 ad 2d be a3 bd c9 3d
       0.08904258 0.03305429 -0.16960634 0.098506235
0003a0 e9 35 de bd f5 d0 ea 3d b0 ee be 3d 33 62 3f 3c
       -0.10850126 0.11465637 0.0932287 0.011681127
0003b0 28 c5 86 bc 89 6e 3b 3e e1 ab c7 3d 2f 7a 1d 3e
       -0.016451433 0.18303885 0.0974958 0.1537864
0003c0 a3 55 de bd 2d 0f 19 be 6d e2 29 be d5 34 0a be
       -0.10856178 -0.14947195 -0.16590281 -0.13496716
0003d0 2d 68 66 be 2b 17 50 3d f8 69 09 be 2e 3d 31 be
       -0.22500677 0.050803345 -0.1341933 -0.17308494
0003e0 e8 63 31 3d 7d 51 e2 bc 31 b7 fb 3d f2 14 c1 3d
       0.04330817 -0.027626747 0.122908 0.09427823
0003f0 26 c8 39 3e 1b be a2 3c 58 e3 fb bc d6 1e 85 3d
       0.18142757 0.01986604 -0.030748054 0.06500022
